…
[38;5;15m    [39m[38;5;197mNUM_ITER[39m[38;5;15m:[39m[38;5;15m [39m[38;5;141m200[39m
[38;5;197mVERSION[39m[38;5;15m:[39m[38;5;15m [39m[38;5;141m2[39m
[38;5;197mVIS_PERIOD[39m[38;5;15m:[39m[38;5;15m [39m[38;5;141m0[39m
[38;5;197mVIS_THRESH[39m[38;5;15m:[39m[38;5;15m [39m[38;5;141m0.3[39m

[04/11 20:49:28 detectron2]: Full config saved to ./output/MY/my_CenterNet-DLA-BiFPN-P3/config.yaml
[04/11 20:49:28 d2.utils.env]: Using a generated random seed 28653486
Loading pretrained DLA!
[04/11 20:49:30 detectron2]: Model:
CenterNetDetector(
  (backbone): BiFPN(
    (bottom_up): DLA(
      (base_layer): Sequential(
        (0): Conv2d(3, 16, kernel_size=(7, 7), stride=(1, 1), padding=(3, 3), bias=False)
        (1): BatchNorm2d(16, eps=1e-05, momentum=0.1, affine=True, track_running_stats=True)
        (2): ReLU(inplace=True)
      )
      (level0): Sequential(
        (0): Conv2d(16, 16, kernel_size=(3, 3), stride=(1, 1), padding=(1, 1), bias=False)
        (1): BatchNorm2d(16, eps=1e-05, momentum=0.1, affine=True, track_running_stats=True)
        (2): ReLU(inplace=True)
      )
      (level1): Sequential(
        (0): Conv2d(16, 32, kernel_size=(3, 3), stride=(2, 2), padding=(1, 1), bias=False)
        (1): BatchNorm2d(32, eps=1e-05, momentum=0.1, affine=True, track_running_stats=True)
        (2): ReLU(inplace=True)
      )
      (level2): Tree(
        (tree1): BasicBlock(
          (conv1): Conv2d(32, 64, kernel_size=(3, 3), stride=(2, 2), padding=(1, 1), bias=False)
          (bn1): BatchNorm2d(64, eps=1e-05, momentum=0.1, affine=True, track_running_stats=True)
          (relu): ReLU(inplace=True)
          (conv2): Conv2d(64, 64, kernel_size=(3, 3), stride=(1, 1), padding=(1, 1), bias=False)
          (bn2): BatchNorm2d(64, eps=1e-05, momentum=0.1, affine=True, track_running_stats=True)
        )
        (tree2): BasicBlock(
          (conv1): Conv2d(64, 64, kernel_size=(3, 3), stride=(1, 1), padding=(1, 1), bias=False)
          (bn1): BatchNorm2d(64, eps=1e-05, momentum=0.1, affine=True, track_running_stats=True)
          (relu): ReLU(inplace=True)
          (conv2): Conv2d(64, 64, kernel_size=(3, 3), stride=(1, 1), padding=(1, 1), bias=False)
          (bn2): BatchNorm2d(64, eps=1e-05, momentum=0.1, affine=True, track_running_stats=True)
        )
        (root): Root(
          (conv): Conv2d(128, 64, kernel_size=(1, 1), stride=(1, 1), bias=False)
          (bn): BatchNorm2d(64, eps=1e-05, momentum=0.1, affine=True, track_running_stats=True)
          (relu): ReLU(inplace=True)
        )
        (downsample): MaxPool2d(kernel_size=2, stride=2, padding=0, dilation=1, ceil_mode=False)
        (project): Sequential(
          (0): Conv2d(32, 64, kernel_size=(1, 1), stride=(1, 1), bias=False)
          (1): BatchNorm2d(64, eps=1e-05, momentum=0.1, affine=True, track_running_stats=True)
        )
      )
      (level3): Tree(
        (tree1): Tree(
          (tree1): BasicBlock(
            (conv1): Conv2d(64, 128, kernel_size=(3, 3), stride=(2, 2), padding=(1, 1), bias=False)
            (bn1): BatchNorm2d(128, eps=1e-05, momentum=0.1, affine=True, track_running_stats=True)
            (relu): ReLU(inplace=True)
            (conv2): Conv2d(128, 128, kernel_size=(3, 3), stride=(1, 1), padding=(1, 1), bias=False)
            (bn2): BatchNorm2d(128, eps=1e-05, momentum=0.1, affine=True, track_running_stats=True)
          )
          (tree2): BasicBlock(
            (conv1): Conv2d(128, 128, kernel_size=(3, 3), stride=(1, 1), padding=(1, 1), bias=False)
            (bn1): BatchNorm2d(128, eps=1e-05, momentum=0.1, affine=True, track_running_stats=True)
            (relu): ReLU(inplace=True)
            (conv2): Conv2d(128, 128, kernel_size=(3, 3), stride=(1, 1), padding=(1, 1), bias=False)
            (bn2): BatchNorm2d(128, eps=1e-05, momentum=0.1, affine=True, track_running_stats=True)
          )
          (root): Root(
            (conv): Conv2d(256, 128, kernel_size=(1, 1), stride=(1, 1), bias=False)
            (bn): BatchNorm2d(128, eps=1e-05, momentum=0.1, affine=True, track_running_stats=True)
            (relu): ReLU(inplace=True)
          )
          (downsample): MaxPool2d(kernel_size=2, stride=2, padding=0, dilation=1, ceil_mode=False)
          (project): Sequential(
            (0): Conv2d(64, 128, kernel_size=(1, 1), stride=(1, 1), bias=False)
            (1): BatchNorm2d(128, eps=1e-05, momentum=0.1, affine=True, track_running_stats=True)
          )
        )
        (tree2): Tree(
          (tree1): BasicBlock(
            (conv1): Conv2d(128, 128, kernel_size=(3, 3), stride=(1, 1), padding=(1, 1), bias=False)
            (bn1): BatchNorm2d(128, eps=1e-05, momentum=0.1, affine=True, track_running_stats=True)
            (relu): ReLU(inplace=True)
            (conv2): Conv2d(128, 128, kernel_size=(3, 3), stride=(1, 1), padding=(1, 1), bias=False)
            (bn2): BatchNorm2d(128, eps=1e-05, momentum=0.1, affine=True, track_running_stats=True)
          )
          (tree2): BasicBlock(
            (conv1): Conv2d(128, 128, kernel_size=(3, 3), stride=(1, 1), padding=(1, 1), bias=False)
            (bn1): BatchNorm2d(128, eps=1e-05, momentum=0.1, affine=True, track_running_stats=True)
            (relu): ReLU(inplace=True)
            (conv2): Conv2d(128, 128, kernel_size=(3, 3), stride=(1, 1), padding=(1, 1), bias=False)
            (bn2): BatchNorm2d(128, eps=1e-05, momentum=0.1, affine=True, track_running_stats=True)
          )
          (root): Root(
            (conv): Conv2d(448, 128, kernel_size=(1, 1), stride=(1, 1), bias=False)
            (bn): BatchNorm2d(128, eps=1e-05, momentum=0.1, affine=True, track_running_stats=True)
            (relu): ReLU(inplace=True)
          )
        )
        (downsample): MaxPool2d(kernel_size=2, stride=2, padding=0, dilation=1, ceil_mode=False)
        (project): Sequential(
          (0): Conv2d(64, 128, kernel_size=(1, 1), stride=(1, 1), bias=False)
          (1): BatchNorm2d(128, eps=1e-05, momentum=0.1, affine=True, track_running_stats=True)
        )
      )
      (level4): Tree(
        (tree1): Tree(
          (tree1): BasicBlock(
            (conv1): Conv2d(128, 256, kernel_size=(3, 3), stride=(2, 2), padding=(1, 1), bias=False)
            (bn1): BatchNorm2d(256, eps=1e-05, momentum=0.1, affine=True, track_running_stats=True)
            (relu): ReLU(inplace=True)
            (conv2): Conv2d(256, 256, kernel_size=(3, 3), stride=(1, 1), padding=(1, 1), bias=False)
            (bn2): BatchNorm2d(256, eps=1e-05, momentum=0.1, affine=True, track_running_stats=True)
          )
          (tree2): BasicBlock(
            (conv1): Conv2d(256, 256, kernel_size=(3, 3), stride=(1, 1), padding=(1, 1), bias=False)
            (bn1): BatchNorm2d(256, eps=1e-05, momentum=0.1, affine=True, track_running_stats=True)
            (relu): ReLU(inplace=True)
            (conv2): Conv2d(256, 256, kernel_size=(3, 3), stride=(1, 1), padding=(1, 1), bias=False)
            (bn2): BatchNorm2d(256, eps=1e-05, momentum=0.1, affine=True, track_running_stats=True)
          )
          (root): Root(
            (conv): Conv2d(512, 256, kernel_size=(1, 1), stride=(1, 1), bias=False)
            (bn): BatchNorm2d(256, eps=1e-05, momentum=0.1, affine=True, track_running_stats=True)
            (relu): ReLU(inplace=True)
          )
          (downsample): MaxPool2d(kernel_size=2, stride=2, padding=0, dilation=1, ceil_mode=False)
          (project): Sequential(
            (0): Conv2d(128, 256, kernel_size=(1, 1), stride=(1, 1), bias=False)
            (1): BatchNorm2d(256, eps=1e-05, momentum=0.1, affine=True, track_running_stats=True)
          )
        )
        (tree2): Tree(
          (tree1): BasicBlock(
            (conv1): Conv2d(256, 256, kernel_size=(3, 3), stride=(1, 1), padding=(1, 1), bias=False)
            (bn1): BatchNorm2d(256, eps=1e-05, momentum=0.1, affine=True, track_running_stats=True)
            (relu): ReLU(inplace=True)
            (conv2): Conv2d(256, 256, kernel_size=(3, 3), stride=(1, 1), padding=(1, 1), bias=False)
            (bn2): BatchNorm2d(256, eps=1e-05, momentum=0.1, affine=True, track_running_stats=True)
          )
          (tree2): BasicBlock(
            (conv1): Conv2d(256, 256, kernel_size=(3, 3), stride=(1, 1), padding=(1, 1), bias=False)
            (bn1): BatchNorm2d(256, eps=1e-05, momentum=0.1, affine=True, track_running_stats=True)
            (relu): ReLU(inplace=True)
            (conv2): Conv2d(256, 256, kernel_size=(3, 3), stride=(1, 1), padding=(1, 1), bias=False)
            (bn2): BatchNorm2d(256, eps=1e-05, momentum=0.1, affine=True, track_running_stats=True)
          )
          (root): Root(
            (conv): Conv2d(896, 256, kernel_size=(1, 1), stride=(1, 1), bias=False)
            (bn): BatchNorm2d(256, eps=1e-05, momentum=0.1, affine=True, track_running_stats=True)
            (relu): ReLU(inplace=True)
          )
        )
        (downsample): MaxPool2d(kernel_size=2, stride=2, padding=0, dilation=1, ceil_mode=False)
        (project): Sequential(
          (0): Conv2d(128, 256, kernel_size=(1, 1), stride=(1, 1), bias=False)
          (1): BatchNorm2d(256, eps=1e-05, momentum=0.1, affine=True, track_running_stats=True)
        )
      )
      (level5): Tree(
        (tree1): BasicBlock(
          (conv1): Conv2d(256, 512, kernel_size=(3, 3), stride=(2, 2), padding=(1, 1), bias=False)
          (bn1): BatchNorm2d(512, eps=1e-05, momentum=0.1, affine=True, track_running_stats=True)
          (relu): ReLU(inplace=True)
          (conv2): Conv2d(512, 512, kernel_size=(3, 3), stride=(1, 1), padding=(1, 1), bias=False)
          (bn2): BatchNorm2d(512, eps=1e-05, momentum=0.1, affine=True, track_running_stats=True)
        )
        (tree2): BasicBlock(
          (conv1): Conv2d(512, 512, kernel_size=(3, 3), stride=(1, 1), padding=(1, 1), bias=False)
          (bn1): BatchNorm2d(512, eps=1e-05, momentum=0.1, affine=True, track_running_stats=True)
          (relu): ReLU(inplace=True)
          (conv2): Conv2d(512, 512, kernel_size=(3, 3), stride=(1, 1), padding=(1, 1), bias=False)
          (bn2): BatchNorm2d(512, eps=1e-05, momentum=0.1, affine=True, track_running_stats=True)
        )
        (root): Root(
          (conv): Conv2d(1280, 512, kernel_size=(1, 1), stride=(1, 1), bias=False)
          (bn): BatchNorm2d(512, eps=1e-05, momentum=0.1, affine=True, track_running_stats=True)
          (relu): ReLU(inplace=True)
        )
        (downsample): MaxPool2d(kernel_size=2, stride=2, padding=0, dilation=1, ceil_mode=False)
        (project): Sequential(
          (0): Conv2d(256, 512, kernel_size=(1, 1), stride=(1, 1), bias=False)
          (1): BatchNorm2d(512, eps=1e-05, momentum=0.1, affine=True, track_running_stats=True)
        )
      )
    )
    (resample): SequentialAppendLast(
      (3): ResampleFeatureMap(
        (conv): ConvBnAct2d(
          (conv): Conv2d(512, 160, kernel_size=(1, 1), stride=(1, 1), bias=False)
          (bn): GroupNorm(32, 160, eps=1e-05, affine=True)
        )
        (downsample): MaxPool2d(kernel_size=2, stride=2, padding=0, dilation=1, ceil_mode=False)
      )
      (4): ResampleFeatureMap(
        (downsample): MaxPool2d(kernel_size=2, stride=2, padding=0, dilation=1, ceil_mode=False)
      )
    )
    (cell): Sequential(
      (0): BiFpnLayer(
        (fnode): SequentialAppend(
          (0): Sequential(
            (combine): FpnCombine(
              (resample): ModuleDict(
                (3): ResampleFeatureMap()
                (4): ResampleFeatureMap(
                  (upsample): UpsamplingNearest2d(scale_factor=2.0, mode=nearest)
                )
              )
            )
            (after_combine): Sequential(
              (act): Swish()
              (conv): ConvBnAct2d(
                (conv): Conv2d(160, 160, kernel_size=(3, 3), stride=(1, 1), padding=(1, 1), bias=False)
                (bn): GroupNorm(32, 160, eps=1e-05, affine=True)
              )
            )
          )
          (1): Sequential(
            (combine): FpnCombine(
              (resample): ModuleDict(
                (2): ResampleFeatureMap(
                  (conv): ConvBnAct2d(
                    (conv): Conv2d(512, 160, kernel_size=(1, 1), stride=(1, 1), bias=False)
                    (bn): GroupNorm(32, 160, eps=1e-05, affine=True)
                  )
                )
                (5): ResampleFeatureMap(
                  (upsample): UpsamplingNearest2d(scale_factor=2.0, mode=nearest)
                )
              )
            )
            (after_combine): Sequential(
              (act): Swish()
              (conv): ConvBnAct2d(
                (conv): Conv2d(160, 160, kernel_size=(3, 3), stride=(1, 1), padding=(1, 1), bias=False)
                (bn): GroupNorm(32, 160, eps=1e-05, affine=True)
              )
            )
          )
          (2): Sequential(
            (combine): FpnCombine(
              (resample): ModuleDict(
                (1): ResampleFeatureMap(
                  (conv): ConvBnAct2d(
                    (conv): Conv2d(256, 160, kernel_size=(1, 1), stride=(1, 1), bias=False)
                    (bn): GroupNorm(32, 160, eps=1e-05, affine=True)
                  )
                )
                (6): ResampleFeatureMap(
                  (upsample): UpsamplingNearest2d(scale_factor=2.0, mode=nearest)
                )
              )
            )
            (after_combine): Sequential(
              (act): Swish()
              (conv): ConvBnAct2d(
                (conv): Conv2d(160, 160, kernel_size=(3, 3), stride=(1, 1), padding=(1, 1), bias=False)
                (bn): GroupNorm(32, 160, eps=1e-05, affine=True)
              )
            )
          )
          (3): Sequential(
            (combine): FpnCombine(
              (resample): ModuleDict(
                (0): ResampleFeatureMap(
                  (conv): ConvBnAct2d(
                    (conv): Conv2d(128, 160, kernel_size=(1, 1), stride=(1, 1), bias=False)
                    (bn): GroupNorm(32, 160, eps=1e-05, affine=True)
                  )
                )
                (7): ResampleFeatureMap(
                  (upsample): UpsamplingNearest2d(scale_factor=2.0, mode=nearest)
                )
              )
            )
            (after_combine): Sequential(
              (act): Swish()
              (conv): ConvBnAct2d(
                (conv): Conv2d(160, 160, kernel_size=(3, 3), stride=(1, 1), padding=(1, 1), bias=False)
                (bn): GroupNorm(32, 160, eps=1e-05, affine=True)
              )
            )
          )
          (4): Sequential(
            (combine): FpnCombine(
              (resample): ModuleDict(
                (1): ResampleFeatureMap(
                  (conv): ConvBnAct2d(
                    (conv): Conv2d(256, 160, kernel_size=(1, 1), stride=(1, 1), bias=False)
                    (bn): GroupNorm(32, 160, eps=1e-05, affine=True)
                  )
                )
                (7): ResampleFeatureMap()
                (8): ResampleFeatureMap(
                  (downsample): MaxPool2d(kernel_size=2, stride=2, padding=0, dilation=1, ceil_mode=False)
                )
              )
            )
            (after_combine): Sequential(
              (act): Swish()
              (conv): ConvBnAct2d(
                (conv): Conv2d(160, 160, kernel_size=(3, 3), stride=(1, 1), padding=(1, 1), bias=False)
                (bn): GroupNorm(32, 160, eps=1e-05, affine=True)
              )
            )
          )
          (5): Sequential(
            (combine): FpnCombine(
              (resample): ModuleDict(
                (2): ResampleFeatureMap(
                  (conv): ConvBnAct2d(
                    (conv): Conv2d(512, 160, kernel_size=(1, 1), stride=(1, 1), bias=False)
                    (bn): GroupNorm(32, 160, eps=1e-05, affine=True)
                  )
                )
                (6): ResampleFeatureMap()
                (9): ResampleFeatureMap(
                  (downsample): MaxPool2d(kernel_size=2, stride=2, padding=0, dilation=1, ceil_mode=False)
                )
              )
            )
            (after_combine): Sequential(
              (act): Swish()
              (conv): ConvBnAct2d(
                (conv): Conv2d(160, 160, kernel_size=(3, 3), stride=(1, 1), padding=(1, 1), bias=False)
                (bn): GroupNorm(32, 160, eps=1e-05, affine=True)
              )
            )
          )
          (6): Sequential(
            (combine): FpnCombine(
              (resample): ModuleDict(
                (3): ResampleFeatureMap()
                (5): ResampleFeatureMap()
                (10): ResampleFeatureMap(
                  (downsample): MaxPool2d(kernel_size=2, stride=2, padding=0, dilation=1, ceil_mode=False)
                )
              )
            )
            (after_combine): Sequential(
              (act): Swish()
              (conv): ConvBnAct2d(
                (conv): Conv2d(160, 160, kernel_size=(3, 3), stride=(1, 1), padding=(1, 1), bias=False)
                (bn): GroupNorm(32, 160, eps=1e-05, affine=True)
              )
            )
          )
          (7): Sequential(
            (combine): FpnCombine(
              (resample): ModuleDict(
                (4): ResampleFeatureMap()
                (11): ResampleFeatureMap(
                  (downsample): MaxPool2d(kernel_size=2, stride=2, padding=0, dilation=1, ceil_mode=False)
                )
              )
            )
            (after_combine): Sequential(
              (act): Swish()
              (conv): ConvBnAct2d(
                (conv): Conv2d(160, 160, kernel_size=(3, 3), stride=(1, 1), padding=(1, 1), bias=False)
                (bn): GroupNorm(32, 160, eps=1e-05, affine=True)
              )
            )
          )
        )
      )
      (1): BiFpnLayer(
        (fnode): SequentialAppend(
          (0): Sequential(
            (combine): FpnCombine(
              (resample): ModuleDict(
                (3): ResampleFeatureMap()
                (4): ResampleFeatureMap(
                  (upsample): UpsamplingNearest2d(scale_factor=2.0, mode=nearest)
                )
              )
            )
            (after_combine): Sequential(
              (act): Swish()
              (conv): ConvBnAct2d(
                (conv): Conv2d(160, 160, kernel_size=(3, 3), stride=(1, 1), padding=(1, 1), bias=False)
                (bn): GroupNorm(32, 160, eps=1e-05, affine=True)
              )
            )
          )
          (1): Sequential(
            (combine): FpnCombine(
              (resample): ModuleDict(
                (2): ResampleFeatureMap()
                (5): ResampleFeatureMap(
                  (upsample): UpsamplingNearest2d(scale_factor=2.0, mode=nearest)
                )
              )
            )
            (after_combine): Sequential(
              (act): Swish()
              (conv): ConvBnAct2d(
                (conv): Conv2d(160, 160, kernel_size=(3, 3), stride=(1, 1), padding=(1, 1), bias=False)
                (bn): GroupNorm(32, 160, eps=1e-05, affine=True)
              )
            )
          )
          (2): Sequential(
            (combine): FpnCombine(
              (resample): ModuleDict(
                (1): ResampleFeatureMap()
                (6): ResampleFeatureMap(
                  (upsample): UpsamplingNearest2d(scale_factor=2.0, mode=nearest)
                )
              )
            )
            (after_combine): Sequential(
              (act): Swish()
              (conv): ConvBnAct2d(
                (conv): Conv2d(160, 160, kernel_size=(3, 3), stride=(1, 1), padding=(1, 1), bias=False)
                (bn): GroupNorm(32, 160, eps=1e-05, affine=True)
              )
            )
          )
          (3): Sequential(
            (combine): FpnCombine(
              (resample): ModuleDict(
                (0): ResampleFeatureMap()
                (7): ResampleFeatureMap(
                  (upsample): UpsamplingNearest2d(scale_factor=2.0, mode=nearest)
                )
              )
            )
            (after_combine): Sequential(
              (act): Swish()
              (conv): ConvBnAct2d(
                (conv): Conv2d(160, 160, kernel_size=(3, 3), stride=(1, 1), padding=(1, 1), bias=False)
                (bn): GroupNorm(32, 160, eps=1e-05, affine=True)
              )
            )
          )
          (4): Sequential(
            (combine): FpnCombine(
              (resample): ModuleDict(
                (1): ResampleFeatureMap()
                (7): ResampleFeatureMap()
                (8): ResampleFeatureMap(
                  (downsample): MaxPool2d(kernel_size=2, stride=2, padding=0, dilation=1, ceil_mode=False)
                )
              )
            )
            (after_combine): Sequential(
              (act): Swish()
              (conv): ConvBnAct2d(
                (conv): Conv2d(160, 160, kernel_size=(3, 3), stride=(1, 1), padding=(1, 1), bias=False)
                (bn): GroupNorm(32, 160, eps=1e-05, affine=True)
              )
            )
          )
          (5): Sequential(
            (combine): FpnCombine(
              (resample): ModuleDict(
                (2): ResampleFeatureMap()
                (6): ResampleFeatureMap()
                (9): ResampleFeatureMap(
                  (downsample): MaxPool2d(kernel_size=2, stride=2, padding=0, dilation=1, ceil_mode=False)
                )
              )
            )
            (after_combine): Sequential(
              (act): Swish()
              (conv): ConvBnAct2d(
                (conv): Conv2d(160, 160, kernel_size=(3, 3), stride=(1, 1), padding=(1, 1), bias=False)
                (bn): GroupNorm(32, 160, eps=1e-05, affine=True)
              )
            )
          )
          (6): Sequential(
            (combine): FpnCombine(
              (resample): ModuleDict(
                (3): ResampleFeatureMap()
                (5): ResampleFeatureMap()
                (10): ResampleFeatureMap(
                  (downsample): MaxPool2d(kernel_size=2, stride=2, padding=0, dilation=1, ceil_mode=False)
                )
              )
            )
            (after_combine): Sequential(
              (act): Swish()
              (conv): ConvBnAct2d(
                (conv): Conv2d(160, 160, kernel_size=(3, 3), stride=(1, 1), padding=(1, 1), bias=False)
                (bn): GroupNorm(32, 160, eps=1e-05, affine=True)
              )
            )
          )
          (7): Sequential(
            (combine): FpnCombine(
              (resample): ModuleDict(
                (4): ResampleFeatureMap()
                (11): ResampleFeatureMap(
                  (downsample): MaxPool2d(kernel_size=2, stride=2, padding=0, dilation=1, ceil_mode=False)
                )
              )
            )
            (after_combine): Sequential(
              (act): Swish()
              (conv): ConvBnAct2d(
                (conv): Conv2d(160, 160, kernel_size=(3, 3), stride=(1, 1), padding=(1, 1), bias=False)
                (bn): GroupNorm(32, 160, eps=1e-05, affine=True)
              )
            )
          )
        )
      )
      (2): BiFpnLayer(
        (fnode): SequentialAppend(
          (0): Sequential(
            (combine): FpnCombine(
              (resample): ModuleDict(
                (3): ResampleFeatureMap()
                (4): ResampleFeatureMap(
                  (upsample): UpsamplingNearest2d(scale_factor=2.0, mode=nearest)
                )
              )
            )
            (after_combine): Sequential(
              (act): Swish()
              (conv): ConvBnAct2d(
                (conv): Conv2d(160, 160, kernel_size=(3, 3), stride=(1, 1), padding=(1, 1), bias=False)
                (bn): GroupNorm(32, 160, eps=1e-05, affine=True)
              )
            )
          )
          (1): Sequential(
            (combine): FpnCombine(
              (resample): ModuleDict(
                (2): ResampleFeatureMap()
                (5): ResampleFeatureMap(
                  (upsample): UpsamplingNearest2d(scale_factor=2.0, mode=nearest)
                )
              )
            )
            (after_combine): Sequential(
              (act): Swish()
              (conv): ConvBnAct2d(
                (conv): Conv2d(160, 160, kernel_size=(3, 3), stride=(1, 1), padding=(1, 1), bias=False)
                (bn): GroupNorm(32, 160, eps=1e-05, affine=True)
              )
            )
          )
          (2): Sequential(
            (combine): FpnCombine(
              (resample): ModuleDict(
                (1): ResampleFeatureMap()
                (6): ResampleFeatureMap(
                  (upsample): UpsamplingNearest2d(scale_factor=2.0, mode=nearest)
                )
              )
            )
            (after_combine): Sequential(
              (act): Swish()
              (conv): ConvBnAct2d(
                (conv): Conv2d(160, 160, kernel_size=(3, 3), stride=(1, 1), padding=(1, 1), bias=False)
                (bn): GroupNorm(32, 160, eps=1e-05, affine=True)
              )
            )
          )
          (3): Sequential(
            (combine): FpnCombine(
              (resample): ModuleDict(
                (0): ResampleFeatureMap()
                (7): ResampleFeatureMap(
                  (upsample): UpsamplingNearest2d(scale_factor=2.0, mode=nearest)
                )
              )
            )
            (after_combine): Sequential(
              (act): Swish()
              (conv): ConvBnAct2d(
                (conv): Conv2d(160, 160, kernel_size=(3, 3), stride=(1, 1), padding=(1, 1), bias=False)
                (bn): GroupNorm(32, 160, eps=1e-05, affine=True)
              )
            )
          )
          (4): Sequential(
            (combine): FpnCombine(
              (resample): ModuleDict(
                (1): ResampleFeatureMap()
                (7): ResampleFeatureMap()
                (8): ResampleFeatureMap(
                  (downsample): MaxPool2d(kernel_size=2, stride=2, padding=0, dilation=1, ceil_mode=False)
                )
              )
            )
            (after_combine): Sequential(
              (act): Swish()
              (conv): ConvBnAct2d(
                (conv): Conv2d(160, 160, kernel_size=(3, 3), stride=(1, 1), padding=(1, 1), bias=False)
                (bn): GroupNorm(32, 160, eps=1e-05, affine=True)
              )
            )
          )
          (5): Sequential(
            (combine): FpnCombine(
              (resample): ModuleDict(
                (2): ResampleFeatureMap()
                (6): ResampleFeatureMap()
                (9): ResampleFeatureMap(
                  (downsample): MaxPool2d(kernel_size=2, stride=2, padding=0, dilation=1, ceil_mode=False)
                )
              )
            )
            (after_combine): Sequential(
              (act): Swish()
              (conv): ConvBnAct2d(
                (conv): Conv2d(160, 160, kernel_size=(3, 3), stride=(1, 1), padding=(1, 1), bias=False)
                (bn): GroupNorm(32, 160, eps=1e-05, affine=True)
              )
            )
          )
          (6): Sequential(
            (combine): FpnCombine(
              (resample): ModuleDict(
                (3): ResampleFeatureMap()
                (5): ResampleFeatureMap()
                (10): ResampleFeatureMap(
                  (downsample): MaxPool2d(kernel_size=2, stride=2, padding=0, dilation=1, ceil_mode=False)
                )
              )
            )
            (after_combine): Sequential(
              (act): Swish()
              (conv): ConvBnAct2d(
                (conv): Conv2d(160, 160, kernel_size=(3, 3), stride=(1, 1), padding=(1, 1), bias=False)
                (bn): GroupNorm(32, 160, eps=1e-05, affine=True)
              )
            )
          )
          (7): Sequential(
            (combine): FpnCombine(
              (resample): ModuleDict(
                (4): ResampleFeatureMap()
                (11): ResampleFeatureMap(
                  (downsample): MaxPool2d(kernel_size=2, stride=2, padding=0, dilation=1, ceil_mode=False)
                )
              )
            )
            (after_combine): Sequential(
              (act): Swish()
              (conv): ConvBnAct2d(
                (conv): Conv2d(160, 160, kernel_size=(3, 3), stride=(1, 1), padding=(1, 1), bias=False)
                (bn): GroupNorm(32, 160, eps=1e-05, affine=True)
              )
            )
          )
        )
      )
    )
  )
  (proposal_generator): CenterNet(
    (iou_loss): IOULoss()
    (centernet_head): CenterNetHead(
      (cls_tower): Sequential(
        (0): Conv2d(160, 160, kernel_size=(3, 3), stride=(1, 1), padding=(1, 1))
        (1): GroupNorm(32, 160, eps=1e-05, affine=True)
        (2): ReLU()
      )
      (bbox_tower): Sequential(
        (0): Conv2d(160, 160, kernel_size=(3, 3), stride=(1, 1), padding=(1, 1))
        (1): GroupNorm(32, 160, eps=1e-05, affine=True)
        (2): ReLU()
      )
      (share_tower): Sequential()
      (bbox_pred): Conv2d(160, 4, kernel_size=(3, 3), stride=(1, 1), padding=(1, 1))
      (scales): ModuleList(
        (0): Scale()
        (1): Scale()
        (2): Scale()
      )
      (cls_logits): Conv2d(160, 80, kernel_size=(3, 3), stride=(1, 1), padding=(1, 1))
    )
  )
)
[04/11 20:49:30 d2.checkpoint.detection_checkpoint]: [DetectionCheckpointer] Loading from ./models/ImageNetPretrained/MSRA_R-50.pkl ...
[04/11 20:49:30 fvcore.common.checkpoint]: [Checkpointer] Loading from ./models/ImageNetPretrained/MSRA_R-50.pkl ...
[04/11 20:49:30 d2.checkpoint.c2_model_loading]: Renaming Caffe2 weights ......
…
